…
2026-04-04 10:23:32,094 - INFO - eval	x: (1697, 12, 307, 3), y: (1697, 12, 307, 3)
2026-04-04 10:23:32,094 - INFO - test	x: (3394, 12, 307, 3), y: (3394, 12, 307, 3)
2026-04-04 10:25:24,963 - INFO - Saved at ./libcity/cache/dataset_cache/point_based_PEMSD4_12_12_0.7_0.1_none_200_False_True_True_True.npz
2026-04-04 10:25:24,964 - INFO - NoneScaler
2026-04-04 10:25:24,964 - INFO - NoneScaler
2026-04-04 10:25:29,113 - INFO - Building simplified MCSTMamba model with just two Mamba blocks
2026-04-04 10:25:29,120 - INFO - Simplified MCSTMamba model configured for device: cuda:0
2026-04-04 10:25:29,602 - INFO - MCSTMamba(
  (input_proj): Linear(in_features=3, out_features=24, bias=True)
  (tod_embedding): Embedding(288, 24)
  (dow_embedding): Embedding(7, 24)
  (mamba_input_proj): Linear(in_features=168, out_features=96, bias=True)
  (temporal_block): SimpleMambaBlock(
    (layer_norm): LayerNorm((96,), eps=1e-05, elementwise_affine=True)
    (mamba): Mamba(
      (in_proj): Linear(in_features=96, out_features=384, bias=False)
      (conv1d): Conv1d(192, 192, kernel_size=(4,), stride=(1,), padding=(3,), groups=192)
      (act): SiLU()
      (x_proj): Linear(in_features=192, out_features=198, bias=False)
      (dt_proj): Linear(in_features=6, out_features=192, bias=True)
      (out_proj): Linear(in_features=192, out_features=96, bias=False)
    )
    (dropout): Dropout(p=0.1, inplace=False)
    (feed_forward): Sequential(
      (0): Linear(in_features=96, out_features=384, bias=True)
      (1): GELU(approximate='none')
      (2): Dropout(p=0.1, inplace=False)
      (3): Linear(in_features=384, out_features=96, bias=True)
    )
    (ff_norm): LayerNorm((96,), eps=1e-05, elementwise_affine=True)
    (ff_dropout): Dropout(p=0.1, inplace=False)
  )
  (spatial_block): SimpleMambaBlock(
    (layer_norm): LayerNorm((96,), eps=1e-05, elementwise_affine=True)
    (mamba): Mamba(
      (in_proj): Linear(in_features=96, out_features=384, bias=False)
      (conv1d): Conv1d(192, 192, kernel_size=(4,), stride=(1,), padding=(3,), groups=192)
      (act): SiLU()
      (x_proj): Linear(in_features=192, out_features=198, bias=False)
      (dt_proj): Linear(in_features=6, out_features=192, bias=True)
      (out_proj): Linear(in_features=192, out_features=96, bias=False)
    )
    (dropout): Dropout(p=0.1, inplace=False)
    (feed_forward): Sequential(
      (0): Linear(in_features=96, out_features=384, bias=True)
      (1): GELU(approximate='none')
      (2): Dropout(p=0.1, inplace=False)
      (3): Linear(in_features=384, out_features=96, bias=True)
    )
    (ff_norm): LayerNorm((96,), eps=1e-05, elementwise_affine=True)
    (ff_dropout): Dropout(p=0.1, inplace=False)
  )
  (output_proj): Linear(in_features=96, out_features=3, bias=True)
  (final_layer_norm): LayerNorm((96,), eps=1e-05, elementwise_affine=True)
)
2026-04-04 10:25:29,603 - INFO - spatial_embedding	torch.Size([307, 16])	cuda:0	True
2026-04-04 10:25:29,603 - INFO - adaptive_embedding	torch.Size([12, 307, 80])	cuda:0	True
2026-04-04 10:25:29,603 - INFO - combine_weights	torch.Size([2, 96])	cuda:0	True
2026-04-04 10:25:29,603 - INFO - input_proj.weight	torch.Size([24, 3])	cuda:0	True
2026-04-04 10:25:29,603 - INFO - input_proj.bias	torch.Size([24])	cuda:0	True
…
